cifar-logistic-20-epochs.pth (torch_old, 41564 bytes, 2 tensors)

linear.weight f4 [10, 1024]
00000000: a9ce 25bc 5906 f03b c7dc 47bc 970e 183a
00000010: de2c 31ba 7f9e 133c 2ff7 8d3b d7e3 61bc
00000020: 74aa af3c d705 043c bddc 0e3c cc08 c0bc
00000030: 55c0 a2bc b092 993b 8290 c23c bd8f be3b
00000040: f8f0 563c b316 99bb 4dbb b03c 55f4 cfbc
00000050: 2942 d43c 7bc2 a73b 0d43 b0bc 555e d43c
00000060: cc64 103b 6d0d 4b3c 6cd5 c33c d369 b6bc
00000070: 1431 cfbc 8055 993c a53d 18bc 288f c8bc
00000080: aa3a b43b 2fc4 b4bc 9b29 c13c 0e21 5cbc
00000090: 8a46 aabc e543 633c 81b3 d83c 8d4b d93b
000000a0: 5bd8 c63c 7edf d6bb 90e7 c4bc 0258 413c
000000b0: 29a6 1cbc 4700 01bc f79a f8bc cc70 8a3a
000000c0: 6313 86bc 4ffd d2bb 1a76 8b3a db28 b7bc
000000d0: 76f8 833c afd4 dc3c 58c9 11bc 0db6 dbbc
000000e0: 1bd8 bd3b d599 3dbb 61a2 d8bc 7c94 ac3b
000000f0: 5460 863c 30a4 943b f790 c73b 84e1 843c
00000100: 267d aa3c e829 53bb 4373 733c a29b e0bc
00000110: 91ea 993c 275e 403c 944a e0bc b95d 033c
00000120: 797c c0bc 0057 ef3c b428 ecbc 9b1e 96bb
00000130: fef9 b83c ba07 863a c5fb 453b 6303 cd3a
00000140: f2de 143c a49c 423c b906 67bb 389a f73c
00000150: 28ed 233c 736c bd3c 622d d93b e91f a53a
00000160: cc3e 203c 1faf 6fbb 7966 8a3b 509b e83c
00000170: b1c6 6a3c 6083 06bd 0cba 4a3c 9efc fc3b
00000180: f21c 5b3c b81d 6fbc 5b42 8f3c 3344 a2bc
00000190: 34b8 b3bc 6f9f a8bc 6eda 9a3a d89f 053c
000001a0: deb7 c53b 1f3e bd3c f188 053c 0ac1 bdbc
000001b0: 50ce 8ebb cf7d eb3c 939e 003d eb0d b1bc
000001c0: 71ac fa3c 95e9 d9bb dd5c 6b3c 129f 4e3c
000001d0: cb15 0bbb d842 69bc 9b49 94bc 3da1 c43c
000001e0: 8615 713c c857 a9bc 6c06 c8bb d6bb ee3c
000001f0: bcf4 c6bc 8ad9 ae3c c719 033c 3d37 f23c
00000200: 32bb a9bc 3d07 ff3c a799 193c f850 00bc
00000210: 293a 973b 41d0 5d3b c568 843c 1351 b6bc
00000220: 1483 11ba ed3d a2bc 579a 0a3d bfd7 a9bc
00000230: abc9 98bc aca9 083d af37 ed3c f67a b93a
00000240: 795e 6fba 96be 3bbc 3363 b23b 8e82 ef3c
00000250: e9d2 073d 7bfc ed3c 8c84 21bc 6d91 d33a
00000260: cfac 51bc 8a03 f1bb 54fa f83c 7b05 64bc
00000270: 9eee 423b 961b f93c 52a3 e63c 0a2c 8ebc
00000280: a71b b2bb d878 98bc 2f7a a0bc 45cf f83c
00000290: 9d83 9e3b 497d b8bc 8270 ef3c b2bb 41bc
000002a0: b86b 8cbc da2a 0dbc 66fa 3039 95f0 c33b
000002b0: a900 ce3b e0fd 88bc ecb0 073d 41d6 3e3b
000002c0: 6e61 9d3c 190b 973c e31c b4bc c04a 233c
000002d0: 7f66 143d a664 1b3d 8ef5 113c e9a0 e73c
000002e0: 971b 19bc 0076 c2bc 36ed 9ebc 624c 16bc
000002f0: f474 d6bc 7ffb ac3c 564d 843b fbeb 36bc
00000300: d9bc 72bc b2a3 2a3c aba8 39bc 3471 f1bb
00000310: feb3 f03a d9dc a5bc 6440 743b 7ce3 253d
00000320: 09d1 0a3d a0bb 503c e2cc 69bc 726a 893c
00000330: fcd4 07bc c9f3 9abc 8e8e fabb 437d 75bc
00000340: 1a27 c73c b1d8 8bbc 37cc 6b3b 91f5 4a3c
00000350: 10e2 e3bb 4ac3 c2bb 733d aa3c da5a 8fbc
00000360: 43a3 c63c 7099 e2ba 17d7 9ebc 023a 5d3b
00000370: ef43 2ebb 2df3 3a3b b477 d5bb 5b5d 033c
00000380: 9366 823c c429 d13c 4f6c 22bc c710 603c
00000390: fe57 f43c 60ed cd3b 289c e73b 152d e73c
000003a0: 8652 95bc e793 42bc dea3 233d c934 693c
000003b0: def5 113c 5077 b2bc 3c57 62bc 05d8 273c
000003c0: 6372 ae3a c984 b53c f7ff 75bc 1a02 b13c
000003d0: baa8 e8bb a894 25bb 7cf9 f73c ff8c 8d3c
000003e0: cbac 50bc d964 b83c e9ae 733c 484b a2bb
000003f0: 93c4 e3bc 5e86 8d3c 1ba1 ab3c 868d ab3c
-0.010120072 0.0073249754 -0.0121986335 0.0005800514 -0.00067587 0.009009956 0.004332445 -0.013787231
0.021443583 0.008058033 0.00871962 -0.023441695 -0.019867102 0.004686676 0.023750547 0.005815475
0.013118975 -0.0046718954 0.021573687 -0.025385061 0.025910454 0.0051196194 -0.021516347 0.025923887
0.0022032736 0.012393338 0.023905478 -0.022267258 -0.025291957 0.018717527 -0.009292041 -0.024482325
0.0055001574 -0.022066204 0.02357941 -0.013435615 -0.020785589 0.013871168 0.026452782 0.006631321
0.024273088 -0.006557404 -0.024036199 0.011800768 -0.0095611 -0.007873601 -0.03034733 0.001056218
-0.016366666 -0.006438888 0.0010640055 -0.022358349 0.016109686 0.026956884 -0.008898102 -0.026820207
0.005793584 -0.0028930802 -0.026444616 0.005266724 0.016403355 0.0045361742 0.006090279 0.016220815
0.020811629 -0.0032221023 0.0148590235 -0.027417962 0.018788608 0.011741198 -0.027379312 0.008017951
-0.023496853 0.02921629 -0.028828003 -0.004581285 0.022580143 0.0010225691 0.003020988 0.0015641268
0.009086357 0.011878166 -0.003525181 0.030224904 0.010005273 0.023123002 0.0066277245 0.0012598011
0.009780597 -0.0036572886 0.0042236415 0.028394371 0.014329598 -0.032840133 0.012373459 0.007720544
0.0133736 -0.014594488 0.017487695 -0.01980791 -0.02193842 -0.020583836 0.0011814365 0.0081557855
0.0060338816 0.02310091 0.008150325 -0.023163337 -0.0043580905 0.028746514 0.03140123 -0.021613082
0.030599805 -0.0066501596 0.014365402 0.0126111675 -0.0021222706 -0.014237128 -0.018101504 0.024002666
0.014714604 -0.02067174 -0.006104281 0.029142302 -0.02428662 0.021343965 0.008001751 0.029567355
-0.020719144 0.031131381 0.0093750125 -0.007831804 0.0046150875 0.0033846053 0.01616324 -0.022255456
-0.0005550843 -0.01980492 0.033838596 -0.020732759 -0.01865085 0.033364937 0.028957216 0.0014151025
-0.0009131204 -0.011459013 0.0054439544 0.029237058 0.033160124 0.029051056 -0.009858262 0.0016141363
-0.012797548 -0.007355158 0.030392803 -0.013917322 0.0029744278 0.030408662 0.02815405 -0.017354984
-0.0054354253 -0.01861231 -0.019589512 0.030372271 0.004837467 -0.022520678 0.029228453 -0.011824535
-0.017141208 -0.008616174 0.00016877949 0.0059796073 0.0062867 -0.01672262 0.03312771 0.0029119404
0.019211497 0.018437909 -0.02198643 0.009966552 0.03623056 0.037937783 0.008908642 0.02827497
-0.009344957 -0.023737907 -0.01940022 -0.0091734845 -0.026178814 0.021116016 0.0040375395 -0.011164661
-0.014815533 0.010415005 -0.0113317175 -0.007368231 0.0018364189 -0.02024691 0.0037269825 0.04050015
0.033890758 0.012740046 -0.014270039 0.01677439 -0.0082905255 -0.018915074 -0.0076463884 -0.014983478
0.024310637 -0.0170711 0.0035979876 0.012387649 -0.006954439 -0.0059436904 0.020781254 -0.017499376
0.024247771 -0.001728816 -0.019389672 0.00337565 -0.0026590785 0.0028526292 -0.006514514 0.008017863
0.015918052 0.02553261 -0.009913518 0.013675875 0.029827114 0.006284401 0.007068176 0.028219739
-0.018227827 -0.011876083 0.039951198 0.014233776 0.008908717 -0.021785408 -0.013814744 0.010244374
0.0013309236 0.022158043 -0.01501464 0.021607447 -0.007100192 -0.0025265608 0.03027033 0.017279146
-0.01273651 0.022509025 0.014873245 -0.004952822 -0.027803695 0.017275985 0.020950845 0.020941507

linear.bias f4 [10]
00000000: 0a74 d1bd e07f 763c 5898 54bb 1e2a c73b
00000010: ac0d 5e3d ec69 373c e019 123d 9fe7 0fbc
00000020: 04b6 0dbd 07e4 23bc
-0.10227211 0.015045136 -0.0032439437 0.006078019 0.054212257 0.011194687 0.035669208 -0.00878325
-0.03459741 -0.010003096
